Unet-tgs-salt-pytorch/output/unet_tgs_salt.pth (torch, 483161 bytes, 25 tensors)

weight f4 [16, 3, 3, 3]
-0.13198186 -0.064896785 0.10032488 -0.11726186 0.1927953 -0.008835439 -0.17081437 -0.033602804
-0.1908815 0.18864502 -0.13042192 0.03017258 -0.11079448 0.015287964 0.0827231 -0.09580601
-0.07241116 -0.1936606 -0.06150038 0.1410477 0.23776363 0.19442031 0.21211997 0.21793398
0.0677496 -0.13671926 -0.161002 -0.0442771 -0.10152306 0.11345793 -0.0526672 -0.17745276
-0.15875873 0.068316385 -0.15623505 0.09592759 -0.10192114 0.05569991 0.20772251 -0.16848047
-0.06562396 0.006674583 0.0034528638 -0.11805083 -0.015282361 0.004216929 -0.10180383 -0.026845232
-0.16029575 0.18095657 0.18150522 0.033343833 -0.087290265 0.1606859 0.04858542 -0.21368204
-0.1822486 -0.16580208 0.068832375 -0.13588288 0.19747253 0.1541867 0.09283344 -0.024463171
0.12302735 -0.11767836 -0.19231799 0.00539513 -0.086046495 0.22625703 -0.11470223 -0.14841329
-0.0817323 0.026641086 -0.25661975 0.10423379 -0.10009182 -0.22756726 0.16641456 0.047327373
0.030667601 -0.07554251 0.0059694643 -0.18264908 -0.066930614 -0.12863788 0.11201787 0.05702026
0.054124467 0.055827364 0.03126323 -0.12607078 0.11051795 0.04780686 0.020358846 -0.0045389277
0.052876655 0.026125563 -0.12579566 -0.19463502 0.08511063 0.08235936 0.15047419 0.08095619
-0.09824826 0.07936457 -0.11269027 0.006579462 -0.06264895 0.07628139 -0.14780444 0.04339115
-0.16188654 0.039340716 -0.028226003 0.07862204 -0.19985433 0.15554315 0.043693434 -0.10146065
-0.19202933 0.16492869 -0.02928155 -0.05675476 -0.09116456 -0.20925437 -0.159784 -0.14050736
-0.001518937 0.113061786 -0.09801736 -0.12081954 -0.006563126 -0.15470798 -0.09687527 -0.105799876
0.006232526 0.07839008 0.030886455 0.13841602 -0.18767208 0.11149856 0.11865566 0.13432884
0.13451174 -0.18343955 0.025764555 -0.17482051 -0.04452611 0.042670675 -0.04698412 0.16820547
0.042641737 0.0011158031 -0.1195683 -0.12809043 0.06219359 -0.12453028 0.1410661 0.06144991
-0.029752111 -0.11493862 -0.056238763 0.05121133 -0.08663683 -0.18847993 0.13675925 -0.14340316
-0.075547054 0.13298944 -0.07688319 0.15011069 -0.15088557 -0.14919727 0.10975142 0.10992901
-0.16470967 -0.16243838 0.016699063 -0.13373475 0.051888656 -0.12658986 -0.18741986 0.0037699963
0.069496 -0.10213597 0.16486834 -0.106161974 -0.08159508 -0.057503328 0.06850027 -0.1666343
-0.181692 -0.17129621 -0.17695148 -0.040770058 -0.166423 0.11687614 0.01284057 0.04575291
0.020701109 -0.10657379 -0.17548794 0.029511165 0.12683143 0.023317121 0.013763245 -0.17779681
-0.16246717 0.08559357 0.12404902 -0.001797516 0.15156257 -0.17637934 -0.0032991741 0.047298525
-0.11315084 0.031451356 0.018596495 0.065564245 -0.07357115 -0.011229319 -0.09910952 -0.056645166
0.020445123 0.16018315 0.07642475 -0.15926853 0.035577744 0.024818825 -0.12869368 -0.13411659
0.18832873 0.105624154 -0.14839667 -0.079811744 -0.143617 -0.005037156 -0.063934706 -0.09447913
-0.098881274 -0.13032804 -0.047615945 0.13304529 -0.03767328 0.08503108 -0.14012562 -0.055160187
-0.03118681 -0.058869272 -0.12408383 -0.07790781 -0.10986191 -0.056503534 -0.09629016 -0.23129752
00000000: 4126 07be 9be8 84bd 2177 cd3d fc26 f0bd
00000010: 226c 453e 84c2 10bc f6e9 2ebe 18a3 09bd
00000020: 7176 43be 292c 413e 538d 05be 7d2c f73c
00000030: 37e8 e2bd 5e7a 7a3c bb6a a93d f135 c4bd
00000040: 4d4c 94bd f74e 46be d3e7 7bbd cf6e 103e
00000050: 4f78 733e 1e16 473e fa35 593e 162a 5f3e
00000060: 4dc0 8a3d 2200 0cbe b5dd 24be e85b 35bd
00000070: 52eb cfbd a25c e83d 90b9 57bd 2db6 35be
00000080: a691 22be 76e9 8b3d 15fc 1fbe af75 c43d
00000090: 08bc d0bd 9725 643d 36b5 543e 2586 2cbe
000000a0: db65 86bd 76b6 da3b 7149 623b a2c4 f1bd
000000b0: de62 7abc 2a2e 8a3b 877e d0bd 88ea dbbc
000000c0: 9224 24be ae4c 393e 81dc 393e 8b93 083d
000000d0: 3dc5 b2bd d88a 243e 8101 473d 77cf 5abe
000000e0: 619f 3abe 05c8 29be fdf7 8c3d e224 0bbe
000000f0: 3d36 4a3e 1ee3 1d3e 751f be3d fd66 c8bc
00000100: c3f5 fb3d 5a01 f1bd 02ef 44be a1c9 b03b
00000110: 2539 b0bd ecaf 673e 01e9 eabd a7f9 17be
00000120: 4463 a7bd 683e da3c aa63 83be 8678 d53d
00000130: f1fc ccbd 6407 69be 9468 2a3e 59da 413d
00000140: 9f3a fb3c 08b6 9abd 7f9b c33b 5c08 3bbe
00000150: eb12 89bd a6b9 03be a069 e53d 138e 693d
00000160: 9eb1 5d3d 3cab 643d df0d 003d b318 01be
00000170: 3c57 e23d 20d1 433d 98c7 a63c 49bb 94bb
00000180: 3195 583d 4705 d63c 94d0 00be 674e 47be
00000190: 7b4e ae3d 06ac a83d e815 1a3e 5ccc a53d
000001a0: 6236 c9bd e489 a23d 28ca e6bd 8798 d73b
000001b0: 184e 80bd 6b39 9c3d 0c5a 17be ebba 313d
000001c0: 96c5 25be bb23 213d 383a e7bc 9804 a13d
000001d0: 9da6 4cbe b446 1f3e e3f7 323d 9aca cfbd
000001e0: 56a3 44be 11e3 283e dcdf efbc ae77 68bd
000001f0: 7cb4 babd c746 56be 6b9e 23be 29e1 0fbe
00000200: 1117 c7ba f08c e73d 53bd c8bd 3c70 f7bd
00000210: 7e0f d7bb c56b 1ebe 8b66 c6bd 9bad d8bd
00000220: 383a cc3b fa8a a03d 9705 fd3c eebc 0d3e
00000230: 1c2d 40be 5b59 e43d bd01 f33d 808d 093e
00000240: 72bd 093e 94d7 3bbe 3010 d33c 2604 33be
00000250: 0361 36bd 72c7 2e3d 6c72 40bd 0e3e 2c3e
00000260: 1aa9 2e3d 2440 923a 3ae0 f4bd 232a 03be
00000270: b5be 7e3d bb09 ffbd a273 103e e7b2 7b3d
00000280: b3ba f3bc f064 ebbd 9e5a 66bd f9c2 513d
00000290: a66e b1bd e200 41be 9e0a 0c3e 47d8 12be
000002a0: 6ab8 9abd 622e 083e ef74 9dbd 9eb6 193e
000002b0: bf81 1abe 2bc7 18be 5ac5 e03d 7622 e13d
000002c0: a7a9 28be 3f56 26be 79cc 883c c3f1 08be
000002d0: 3389 543d c6a0 01be feea 3fbe 0b12 773b
000002e0: eb53 8e3d aa2c d1bd 3fd3 283e 736b d9bd
000002f0: 521b a7bd 9c88 6bbd df49 8c3d 2fa2 2abe
00000300: 780d 3abe 4668 2fbe c532 35be 81fe 26bd
00000310: ca6a 2abe c25c ef3d 4161 523c 6767 3b3d
00000320: 5f95 a93c 5c43 dabd 1cb3 33be 66c1 f13c
00000330: 19e0 013e 8c03 bf3c 3c7f 613c 5e10 36be
00000340: cb5d 26be ae4b af3d 6a0d fe3d a19a ebba
00000350: 3833 1b3e c99c 34be f536 58bb 19bc 413d
00000360: a1bb e7bd 23d3 003d ad57 983c 8c46 863d
00000370: 79ac 96bd 2dfb 37bc eff9 cabd c304 68bd
00000380: 887c a73c 0d07 243e 9484 9c3d 4a17 23be
00000390: f8b9 113d d950 cb3c 47c8 03be dc55 09be
000003a0: 3fd9 403e 7a51 d83d 4cf5 17be 5774 a3bd
000003b0: 5610 13be ba0e a5bb 33f0 82bd 467e c1bd
000003c0: 4482 cabd b774 05be f008 43bd 063d 083e
000003d0: 4c4f 1abd c624 ae3d 177d 0fbe a6ef 61bd
000003e0: 7b7b ffbc e820 71bd aa1f febd 218e 9fbd
000003f0: 48ff e0bd 4070 67bd c733 c5bd 42d9 6cbe

bias f4 [16]
0.030151222 -0.062303115 0.06119952 -0.075781345 0.0405063 -0.18448316 -0.041372515 -0.17017652
-0.10389046 0.13597243 0.028917361 -0.123994395 0.07956109 0.14543241 -0.13098142 0.008518131
00000000: b2ff f63c 8d31 7fbd 59ac 7a3d 4033 9bbd
00000010: efe9 253d 27e9 3cbe 3a76 29bd c142 2ebe
00000020: 86c4 d4bd 5b3c 0b3e 1ae4 ec3c c6f0 fdbd
00000030: edf0 a23d 3cec 143e fe1f 06be a28f 0b3c

weight f4 [16, 16, 3, 3]
0.08725577 0.09176007 -0.00058975257 0.117865086 0.18130565 0.11612558 0.15555143 0.031753127
0.030566702 0.00031941704 -0.06491112 -0.008572881 0.00886122 0.03313922 0.009665163 0.034990218
-0.064578734 -0.04037967 0.08038309 0.16513187 0.09724488 0.03270842 0.022636553 0.111454524
0.06425131 0.14219226 0.044464912 0.04914318 0.04372566 0.0056697046 -0.016485093 0.08378201
-0.014382428 -0.068143 -0.0031538312 -0.049182817 0.10622702 0.056827318 0.13815004 0.011652978
0.09779072 0.103022955 0.15540864 0.15470691 0.1645388 -0.020173239 0.010366205 0.08810276
-0.003540942 -0.022870148 -0.0874354 -0.020707726 -0.0011006825 -0.069600284 -0.053955983 0.068455815
0.018770153 -0.06712263 -0.046306103 -0.050893713 -0.07772513 0.076652154 -0.07180289 0.05933111
0.006363809 -0.05957985 0.055453084 -0.036708795 0.043798745 0.0081212325 0.056032937 0.0708914
0.006800155 0.014965395 -0.035309583 0.06741949 -0.07992533 0.07375841 -0.06715806 -0.024816772
0.040497236 0.036417924 -0.037320413 0.09006401 0.07938824 0.037808105 0.05234243 0.088769
0.031713303 0.030201277 0.031280983 0.06652504 0.038194768 0.03743923 -0.044555448 0.01621392
0.049705733 -0.07953989 -0.0026424297 -0.015043795 0.02654921 0.06523635 -0.057874165 0.036255322
0.00024053454 -0.017858088 -0.061150342 0.03522418 0.18502152 0.117662326 0.120876215 0.07767547
0.036656965 0.05917643 0.2077845 0.13935092 0.0779515 -0.03778173 -0.1264915 -0.044944067
-0.021002444 -0.11837831 0.048326176 -0.11231041 -0.0038612895 0.021422684 0.1054779 0.06370299
0.080842786 0.08797858 0.02953239 0.08134438 -0.0499604 -0.022302147 -0.024160828 0.0072896634
-0.035464317 0.1081988 -0.04818303 0.09046821 0.07428974 -0.068452775 0.09492131 -0.020227192
0.08392071 0.04631562 0.011313401 0.23679765 0.2241587 0.06571319 0.32357734 0.28999203
0.23641771 -0.03303982 -0.040644985 -0.114746846 0.024168786 -0.04562995 -0.11590593 -0.081852555
-0.11862018 -5.7031026e-05 0.081013605 0.16199176 0.2158078 -0.006699869 0.053981412 0.08006873
-0.01597853 0.1548649 0.16638291 0.003011217 0.06443467 0.07012813 0.027194213 -0.075977445
-0.033398256 0.042016357 0.062032636 -0.058170382 0.022447692 0.042777088 0.15136844 0.06922939
0.06569251 0.013520357 0.03811325 0.10576732 0.10789772 0.07316366 0.06620065 0.04593316
0.04728008 0.07542127 0.03630526 -0.07464558 -0.033785146 -0.02773586 0.008951656 -0.010671724
0.056564547 -0.030431464 0.017650735 0.04055236 -0.05923158 -0.037849218 -0.02890274 0.019329181
-0.03560109 0.07269122 0.01879116 0.04005593 0.018342048 -0.052053273 -0.03360766 -0.015816411
-0.003959805 0.066123985 -0.009936641 -0.039080303 0.071692735 0.07689062 -0.044071805 -0.009889206
-0.05712375 0.048139118 -0.023283755 0.07317149 -0.03396714 -0.06632508 -0.019019756 0.020299919
0.042916857 0.0064988337 0.08652219 0.027224217 0.058632545 0.058647253 0.018796803 0.011389399
0.035796583 0.054707415 -0.098335825 -0.028064877 0.02288421 -0.036780566 -0.037322383 0.004482995
-0.0804876 0.03620529 0.018551162 0.017701268 0.13282247 0.0708697 0.14251584 0.106127426
00000000: 27b3 b23d b4ec bb3d a099 1aba 4063 f13d
00000010: 30a8 393e 40d3 ed3d e048 1f3e 910f 023d
00000020: 0567 fa3c 6e77 a739 1ff0 84bd 4575 0cbc
00000030: a72e 113c febc 073d a25a 1e3c e751 0f3d
00000040: db41 84bd 2765 25bd e49f a43d 5418 293e
00000050: 5328 c73d 44f9 053d 4b70 b93c 4542 e43d
00000060: 3196 833d d99a 113e d720 363d 5c4a 493d
00000070: ad19 333d eec8 b93b bf0b 87bc e795 ab3d
00000080: 46a4 6bbc 8f8e 8bbd 82b0 4ebb ec73 49bd
00000090: 8d8d d93d c3c3 683d 3477 0d3e 22ec 3e3c
000000a0: 8046 c83d b3fd d23d 7123 1f3e 7d6b 1e3e
000000b0: dc7c 283e 5942 a5bc 04d7 293c 386f b43d
000000c0: 260f 68bb 2d5a bbbc 5511 b3bd 40a3 a9bc
000000d0: c744 90ba 988a 8ebd f300 5dbd 9032 8c3d
000000e0: ddc3 993c 9777 89bd 78ab 3dbd ed75 50bd
000000f0: 5a2e 9fbd cefb 9c3d 650d 93bd 2e05 733d
00000100: 8087 d03b 000a 74bd c622 633d f65b 16bd
00000110: 5066 333d eb0e 053c cb82 653d 832f 913d
00000120: d6d3 de3b 6b31 753c c8a0 10bd 3b13 8a3d
00000130: e4af a3bd a60e 973d 2a8a 89bd 8b4c cbbc
00000140: 6ee0 253d f62a 153d 4add 18bd 7b73 b83d
00000150: 4d96 a23d acdc 1a3d 0465 563d 85cc b53d
00000160: cfe5 013d ab68 f73c 7d20 003d 483e 883d
00000170: 1e72 1c3d e159 193d c67f 36bd 0ed3 843c
00000180: 3d98 4b3d cfe5 a2bd 9d2c 2dbb 407a 76bc
00000190: bb7d d93c a39a 853d 760d 6dbd 7680 143d
000001a0: 0038 7c39 204b 92bc c878 7abd 3b47 103d
000001b0: 4876 3d3e f2f8 f03d f38d f73d 5114 9f3d
000001c0: 9d25 163d fc62 723d 76c5 543e 02b2 0e3e
000001d0: 09a5 9f3d 04c1 1abd fd86 01be 4517 38bd
000001e0: 510d acbc 5470 f2bd abf1 453d 0003 e6bd
000001f0: b00d 7dbb a07e af3c cc04 d83d b776 823d
00000200: e790 a53d 1d2e b43d e9ed f13c e297 a63d
00000210: 47a3 4cbd feb2 b6bc eeec c5bc 21de ee3b
00000220: 0843 11bd 5597 dd3d 925b 45bd 6647 b93d
00000230: 3825 983d f830 8cbd 1b66 c23d 7fb3 a5bc
00000240: 9fde ab3d 73b5 3d3d d85b 393c 157b 723e
00000250: dc89 653e a394 863d eeab a53e d679 943e
00000260: 7c17 723e c354 07bd 5b7b 26bd 6500 ebbd
00000270: 9efd c53c 78e6 3abd 1760 edbd 50a2 a7bd
00000280: 23ef f2bd 9934 6fb8 76ea a53d 2be1 253e
00000290: b8fc 5c3e 938a dbbb 9d1b 5d3d 13fb a33d
000002a0: 68e5 82bc e894 1e3e 4860 2a3e d757 453b
000002b0: 53f6 833d 569f 8f3d 66c6 de3c 109a 9bbd
000002c0: 9ccc 08bd 5819 2c3d ef15 7e3d 1144 6ebd
000002d0: 39e4 b73c 0737 2f3d 5400 1b3e 23c8 8d3d
000002e0: cb89 863d 7d84 5d3c a41c 1c3d 899c d83d
000002f0: 7bf9 dc3d d4d6 953d 3594 873d 6924 3c3d
00000300: c2a8 413d 7876 9a3d d3b4 143d c8df 98bd
00000310: 4b62 0abd 5036 e3bc f7a9 123c 74d8 2ebc
00000320: 3ab0 673d 684b f9bc 4698 903c 3b1a 263d
00000330: d09c 72bd c807 1bbd 70c5 ecbc 3b58 9e3c
00000340: 73d2 11bd 22df 943d ebef 993c b011 243d
00000350: 1042 963c d035 55bd 30a8 09bd 6b91 81bc
00000360: 40c1 81bb 036c 873d 4bcd 22bc ab12 20bd
00000370: a4d3 923d d478 9d3d a384 34bd 5606 22bc
00000380: 98fa 69bd 862d 453d 93bd bebc efda 953d
00000390: 2121 0bbd 72d5 87bd 52cf 9bbc 044c a63c
000003a0: 96c9 2f3d 2bf4 d43b 8c32 b13d 5205 df3c
000003b0: ae28 703d 1a38 703d c1fb 993c 9a9a 3a3c
000003c0: 709f 123d e214 603d 4b64 c9bd 50e8 e5bc
000003d0: ab77 bb3c 38a7 16bd 5bdf 18bd 16e6 923b
000003e0: afd6 a4bd 004c 143d 9bf8 973c 4002 913c
000003f0: 9d02 083e 2224 913d acef 113e 5659 d93d

bias f4 [16]
-0.039780766 -0.035741962 0.03394932 -0.00564827 -0.054215193 -0.065274924 0.04125984 0.009350937
0.009584114 -0.012881125 0.0040699188 -0.013288422 0.02927456 -0.017549766 0.051700167 0.0067106574
00000000: 28f1 22bd 2a66 12bd 710e 0b3d 1f15 b9bb
00000010: c010 5ebd dcae 85bd 1400 293d ac34 193c
00000020: b006 1d3c 5b0b 53bc f45c 853b aeb7 59bc
00000030: 34d1 ef3c 87c4 8fbc 8ec3 533d 13e5 db3b

weight f4 [32, 16, 3, 3]
0.09958766 0.03667534 -0.04349315 -0.025779538 -0.00038919217 -0.10251819 0.0036252423 -0.027896874
-0.06937037 -0.024268575 0.092572995 0.10138317 -0.06896375 -0.103577584 0.034974765 -0.0388465
0.013967065 -0.018756041 0.024386184 0.13453837 0.09099344 -0.06593151 -0.013237794 -0.106389515
-0.01407326 -0.13528745 -0.084005035 -0.001744931 -0.0010995552 -0.01868518 0.027979828 -0.0121606905
0.04216867 0.013077837 -0.03248837 -0.041054063 -0.11133469 0.017458154 0.060850892 -0.04638028
-0.010723905 -0.023095658 0.029249098 0.069031976 0.027833618 0.030336764 0.019832201 0.007589368
-0.00029530117 -0.034648396 0.021742491 -0.045623887 0.015973495 -0.07541725 -0.18423699 -0.07848999
-0.14881384 -0.0008596492 0.060912315 -0.06685174 -0.04151552 0.0003768366 -0.0054459753 -0.026356049
-0.014992418 -0.07268453 -0.09705696 0.023549622 -0.09890203 0.00058754906 -0.019212665 -0.1168096
-0.012127416 0.0326958 -0.058858365 -0.16515785 -0.15212701 -0.101984836 -0.0709645 -0.070109345
-0.16130191 0.0031062728 0.020585205 -0.00078373775 0.048332706 0.028093794 -0.087197505 -0.059321564
-0.09558125 -0.107011065 -0.061839886 0.049646776 0.093366794 0.048113994 0.111661136 0.05314096
-0.03938753 0.024226366 0.071709834 -0.040621445 0.045269273 -0.024371568 -0.022282422 -0.008659745
0.031288818 0.06708853 0.074435055 0.0018586656 0.04199051 0.0046653077 0.05074914 -0.006982545
-0.068417124 0.04609021 -0.044428892 -0.03347701 0.0909572 -0.1994327 -0.10133246 -0.014896671
-0.059283104 -0.06093348 0.038502883 -0.08917664 0.07371528 -0.010903454 -0.04860274 -0.010657067
-0.15395178 -0.10607523 -0.0013942864 -0.056400742 0.02476792 0.0714652 -0.015609783 -0.11053861
-0.115188524 -0.08176092 -0.093425594 -0.09572523 -0.06387599 -0.11467459 -0.054966327 -0.052687574
-0.0113498885 0.079804495 0.012723155 0.07620822 0.08490287 0.07676412 0.09963349 0.1085884
0.033381123 -0.011933022 -0.006269452 -0.08423898 0.09550495 0.15602337 -0.038979888 -0.023067968
-0.043924198 -0.1023585 0.069091976 0.058250103 0.022313243 0.14651887 0.15914075 0.02960805
0.16325569 0.01280349 0.0082384795 -0.04868032 0.123550504 0.1187083 -0.03880057 -0.058606435
0.00088577595 0.073870905 0.06655185 0.056280125 0.0076058432 -0.021553406 -0.06568913 0.065142974
0.049356997 -0.00855136 -0.05282042 0.10271907 -0.010537971 0.09223488 -0.07859319 -0.0812283
0.12073058 0.1299458 0.035949312 0.022153946 0.065855555 -0.05839096 -0.054534517 0.046479855
0.1512507 -0.00026169463 -0.12163938 0.06506324 0.038141765 0.053693824 0.082694255 0.017651666
-0.06698687 -0.0072538983 0.022038708 0.00095879444 -0.010922127 -0.04066819 0.045813166 -0.0050583323
0.075464405 -0.004706899 -0.09372892 0.08686175 0.1747953 0.099416904 0.056136932 -0.026104359
-0.028184796 -0.027965302 -0.07163726 0.039177928 0.0133097265 0.027656797 -0.0027778854 0.016996108
-0.013670858 0.030592604 0.0504652 0.027471455 -0.02832568 0.069264084 0.032530952 -0.02426533
-0.026283067 0.06509717 0.010805605 -0.010486362 -0.051936124 0.10848642 0.027183965 -0.04224809
-0.008463051 0.036846265 0.0037507098 0.068337046 0.05366942 0.008748539 0.07645475 -0.021911286
00000000: 9df4 cb3d e238 163d e025 32bd 9c2f d3bc
00000010: 7d0c ccb9 0ff5 d1bd 7995 6d3b fc87 e4bc
00000020: 0d12 8ebd e4ce c6bc e996 bd3d fba1 cf3d
00000030: de3c 8dbd 7c20 d4bd b341 0f3d 821d 1fbd
00000040: 1ed6 643c 45a6 99bc 89c5 c73c 6dc4 093e
00000050: c55a ba3d 1907 87bd 55e3 58bc bfe2 d9bd
00000060: 8893 66bc cb88 0abe d50a acbd 2bb6 e4ba
00000070: f31e 90ba aa11 99bc f435 e53c a23d 47bc
00000080: 0eb9 2c3d 6d44 563c 8612 05bd 4e28 28bd
00000090: 7103 e4bd 6704 8f3c c93e 793d 40f9 3dbd
000000a0: 51b3 2fbc 1b33 bdbc ce9b ef3c a360 8d3d
000000b0: 5403 e43c ce84 f83c 2477 a23c 3cb0 f83b
000000c0: a7d2 9ab9 7aeb 0dbd 4f1d b23c 1de0 3abd
000000d0: d9da 823c 5c74 9abd 9fa8 3cbe 5cbf a0bd
000000e0: a862 18be 155a 61ba 317f 793d 91e9 88bd
000000f0: 2e0c 2abd 2792 c539 2774 b2bb a4e8 d7bc
00000100: c2a2 75bc a0db 94bd cdc5 c6bd 23eb c03c
00000110: 268d cabd c005 1a3a e163 9dbc df39 efbd
00000120: 12b2 46bc 08ec 053d 7815 71bd 241f 29be
00000130: 2fc7 1bbe 6ddd d0bd d655 91bd 7d95 8fbd
00000140: 542c 25be 9c92 4b3b 4ea2 a83c c073 4dba
00000150: 84f8 453d f524 e63c 9b94 b2bd 2bfb 72bd
00000160: 1ac0 c3bd 9e28 dbbd d24b 7dbd 6b5a 4b3d
00000170: 1737 bf3d 2e13 453d 98ae e43d 56aa 593d
00000180: d254 21bd 5f76 c63c 9bdc 923d ac62 26bd
00000190: 466c 393d e2a6 c7bc a089 b6bc 9ae1 0dbc
000001a0: b428 003d b665 893d 6871 983d 789e f33a
000001b0: 3efe 2b3d 70df 983b 55de 4f3d d5cd e4bb
000001c0: 471e 8cbd 17c9 3c3d 12fb 35bd 301f 09bd
000001d0: c547 ba3d 1638 4cbe 6587 cfbd 2b11 74bc
000001e0: d7d2 72bd 6295 79bd 33b5 1d3d 3ea2 b6bd
000001f0: 09f8 963d 67a4 32bc ab13 47bd fb9a 2ebc
00000200: 89a5 1dbe f83d d9bd 7dc0 b6ba 7704 67bd
00000210: 18e6 ca3c 595c 923d 2dc0 7fbc 1162 e2bd
00000220: f6e7 ebbd 4572 a7bd eb55 bfbd 970b c4bd
00000230: 6ad1 82bd 83da eabd 5f24 61bd edce 57bd
00000240: e2f4 39bc 8a70 a33d c874 503c 0e13 9c3d
00000250: 8ee1 ad3d 8236 9d3d a50c cc3d 9863 de3d
00000260: a5ba 083d b982 43bc fa6f cdbb 7d85 acbd
00000270: 1998 c33d 97c4 1f3e 60a9 1fbd 09f9 bcbc
00000280: dce9 33bd 55a1 d1bd 1880 8d3d a997 6e3d
00000290: 43ca b63c 0b09 163e cbf5 223e 958c f23c
000002a0: 802c 273e bbc5 513c b0fa 063c 0465 47bd
000002b0: 0c08 fd3d 561d f33d 59ed 1ebd 4d0d 70bd
000002c0: 6b33 683a a149 973d 564c 883d fd85 663d
000002d0: 703a f93b c590 b0bc 0688 86bd ae69 853d
000002e0: 902a 4a3d 011b 0cbc 3a5a 58bd 605e d23d
000002f0: 74a7 2cbc a4e5 bc3d 77f5 a0bd 065b a6bd
00000300: 9841 f73d 8310 053e 963f 133d 317c b53c
00000310: 47df 863d 5c2b 6fbd 965f 5fbd a961 3e3d
00000320: 77e1 1a3e 0f34 89b9 111e f9bd e03f 853d
00000330: 8a3a 1c3d 0eee 5b3d 9b5b a93d 3a9a 903c
00000340: 6930 89bd 1cb2 edbb 858a b43c 9b57 7b3a
00000350: b9f2 32bc b093 26bd 96a6 3b3d 5ec0 a5bb
00000360: 158d 9a3d 553c 9abb f3f4 bfbd 93e4 b13d
00000370: 8afd 323e 179b cb3d d7ef 653d cfd8 d5bc
00000380: cde3 e6bc 7d17 e5bc 8eb6 92bd 0979 203d
00000390: 0a11 5a3c 8290 e23c 2f0d 36bb 6c3b 8b3c
000003a0: bcfb 5fbc 579d fa3c 99b4 4e3d d10b e13c
000003b0: 420b e8bc 54da 8d3d 2d3f 053d 16c8 c6bc
000003c0: 964f d7bc aa51 853d fe09 313c fdce 2bbc
000003d0: f9ba 54bd 212e de3d e8b0 de3c 550c 2dbd
000003e0: 9ca8 0abc 1cec 163d 78ce 753b 4bf4 8b3d
000003f0: 77d4 5b3d 0856 0f3c 4f94 9c3d 4c7f b3bc

bias f4 [32]
0.046055153 0.06326297 0.010667858 -0.024927543 -0.026426632 -0.08857308 -0.14083844 -0.035027664
-0.08273045 0.020799343 -0.010185984 -0.026612852 -0.06421378 0.025876688 -0.1204494 0.034055553
0.03280488 -0.062205706 -0.06592778 0.061898697 -0.09043775 0.059651807 -0.0013812477 0.056455195
-0.042223237 0.019940719 -0.02839003 0.042913254 0.024155667 0.0447879 -0.009402386 -0.03709258
00000000: 54a4 3c3d 0490 813d 3dc8 2e3c d934 ccbc
00000010: aa7c d8bc ce65 b5bd f437 10be 2b79 0fbd
00000020: 956e a9bd 6263 aa3c 1de3 26bc 3203 dabc
00000030: 8482 83bd 59fb d33c 2dae f6bd d67d 0b3d
00000040: 695e 063d 69cb 7ebd 2505 87bd 7d89 7d3d
00000050: 6d37 b9bd 7455 743d fb0a b5ba 903d 673d
00000060: 46f2 2cbd b85a a33c 3592 e8bc cfc5 2f3d
00000070: 1be2 c53c 8473 373d 770c 1abc 64ee 17bd

weight f4 [32, 32, 3, 3]
0.022214111 0.014164322 -0.020793403 -0.014251069 0.022757191 -0.05679619 -0.0352975 0.0066967583
-0.009568806 -0.060138058 -0.05573466 -0.050259702 0.020229189 -0.064646594 0.03416347 0.036538832
0.031346593 0.07483933 -0.09683085 -0.08038578 0.08504591 -0.08098663 -0.05346328 0.10301551
-0.08144938 -0.018187774 0.03511431 -0.02495133 0.043917768 0.010312945 0.002090858 -0.033068843
-0.022249177 -0.05079624 -0.049686886 -0.05397413 -0.09392284 0.07513767 0.08492713 0.011419883
-0.01563345 0.07840371 -0.004682815 -0.036445595 0.055954725 0.028476935 -0.052365866 -0.031487145
0.048037913 0.05034257 0.017705934 0.047820553 -0.03032264 -0.013476308 -0.039164007 -0.07163013
0.050370287 0.019949375 0.063299894 -0.026354145 0.07208055 0.016652972 0.034488555 -0.0026973388
0.002479465 0.059504382 -0.0017703196 0.0021210602 0.06066072 -0.09232306 -0.064443864 -0.01390383
0.03090203 -0.023986477 0.07502534 0.057902664 0.033195052 -0.007659468 0.033139117 0.083474614
0.05157026 -0.021180889 -0.057277802 0.03491144 -0.0487055 -0.027552554 0.017378373 -0.040911112
-0.017210232 0.01784725 0.045555804 -0.03199976 0.128437 -0.06964771 -0.028852148 0.10742998
-0.027736891 -0.0632776 0.03251384 -0.029809697 -0.07220244 0.05422681 -0.07226233 -0.023534888
0.053012762 0.005836334 0.005057988 0.08752002 -0.050776053 -0.0020891768 0.019509684 0.0021732152
-0.00047593043 -0.016776064 0.029937798 0.04888594 0.041958053 0.09392997 0.0375517 0.044508833
0.03155149 -0.030209964 -0.028299615 0.00028348758 -0.017148342 -0.029791316 0.042715188 0.073479526
0.10762573 0.056494344 0.038757745 0.047079533 0.03151517 -0.011516323 -0.0020749725 0.00940052
-0.07609244 0.013222763 -0.054517522 0.0018428352 -0.025879811 -0.044870798 -0.023222595 -0.0126524735
-0.099998415 0.05750128 0.09294427 -0.08782739 -0.007004035 0.076685585 -0.023454836 0.055053577
0.07263108 -0.120196044 -0.023824463 0.056798726 -0.092489436 0.072687894 0.06787624 -0.0041178307
-0.013566166 0.045801543 0.06571778 0.016461296 0.10988641 0.060034744 0.05023758 0.13104251
-0.038216494 -0.0004836789 0.08270515 0.019799436 -0.056700435 -0.034478683 -0.011684937 -0.061435647
0.020860236 -0.036868464 -0.025070926 0.05357452 0.009080343 0.013146469 0.017252909 -0.031617332
0.005592836 0.023415701 0.042905416 -0.034508023 -0.0044207764 0.037019704 -0.034989063 0.00045101283
0.0006971705 -0.024570256 0.028220043 0.0012993547 -0.07440275 -0.08821124 0.004378244 0.048117965
0.13289893 0.020107698 0.012191239 0.0228429 0.0034898354 -0.02867743 0.025452252 -0.04349487
-0.07733528 0.05206088 -0.015974252 -0.08219956 0.060350735 -0.044621192 -0.0046800002 0.018383898
-6.1258055e-05 -0.047420982 0.0008965739 0.0031600897 0.004755934 -0.030537834 0.029287696 -0.03942687
-0.063788354 -0.0050341133 0.008325495 0.083209574 -0.06214638 -0.065695345 0.0748788 -0.069460616
0.017948193 0.0011296493 -0.17501359 0.108210005 0.27516106 -0.11885518 -0.015762115 0.13387437
-0.0983188 -0.07221598 -0.047055136 0.025529975 -0.012840915 -0.05036612 -0.047226805 -0.07048507
-0.060195956 -0.0016274113 -0.052733306 0.010135151 -0.13806586 0.0096750315 0.12118854 -0.08481595
00000000: 5efa b53c 7911 683c ed56 aabc 517d 69bc
00000010: 4a6d ba3c 1fa3 68bd 1d94 10bd 7b70 db3b
00000020: 7bc6 1cbc 5353 76bd 074a 64bd 1edd 4dbd
00000030: afb7 a53c 6f65 84bd ffee 0b3d bea9 153d
00000040: 4965 003d 5d45 993d 414f c6bd 4da1 a4bd
00000050: 8d2c ae3d 51dc a5bd 50fc 5abd ccf9 d23d
00000060: efce a6bd 87fe 94bc 06d4 0f3d bb66 ccbc
00000070: 1ee3 333d a0f7 283c c706 093b 3273 07bd
00000080: e843 b6bc b80f 50bd 7a84 4bbd fa13 5dbd
00000090: 9e5a c0bd c7e1 993d 46ee ad3d 761a 3b3c
000000a0: b911 80bc 2092 a03d 4d72 99bb fa47 15bd
000000b0: c830 653d 7648 e93c 977d 56bd aaf8 00bd
000000c0: 67c3 443d 0334 4e3d 090c 913c 7cdf 433d
000000d0: 2f67 f8bc bccb 5cbc 706a 20bd d1b2 92bd
000000e0: 1351 4e3d df6c a33c 60a3 813d a6e4 d7bc
000000f0: f89e 933d d06b 883c df43 0d3d d6c5 30bb
00000100: 857e 223b deba 733d 120a e8ba 7c01 0b3b
00000110: 6077 783d df13 bdbd 25fb 83bd e4cc 63bc
00000120: 4126 fd3c 4a7f c4bc e3a6 993d 582b 6d3d
00000130: 89f7 073d 46fc fabb e2bc 073d bdf4 aa3d
00000140: 563b 533d 8b83 adbc 219c 6abd 4cff 0e3d
00000150: 6b7f 47bd e5b5 e1bc 175d 8e3c 6992 27bd
00000160: 79fc 8cbc 6534 923c b998 3a3d 2e12 03bd
00000170: fd84 033e 75a3 8ebd 575b ecbc 4004 dc3d
00000180: 7a38 e3bc b097 81bd 3b2d 053d 7733 f4bc
00000190: dfde 93bd ee1c 5e3d 46fe 93bd 3dcc c0bc
000001a0: e923 593d b83e bf3b 7bbd a53b b23d b33d
000001b0: 8dfa 4fbd 92ea 08bb c6d2 9f3c 806c 0e3b
000001c0: 4d86 f9b9 f56d 89bc 1d40 f53c a03c 483d
000001d0: 35dc 2b3d 5b5e c03d d0cf 193d e54e 363d
000001e0: 233c 013d e37a f7bc 98d4 e7bc 0fa1 9439
000001f0: ae7a 8cbc eb0c f4bc 1ff6 2e3d 6f7c 963d
00000200: e16a dc3d 9d66 673d 71c0 1e3d 78d6 403d
00000210: 0d16 013d f6ae 3cbc 43fc 07bb a304 1a3c
00000220: 5ad6 9bbd 4aa4 583c c44d 5fbd 4a8b f13a
00000230: e601 d4bc 71ca 37bd 503d bebc 524c 4fbc
00000240: f8cb ccbd 7686 6b3d 9159 be3d d9de b3bd
00000250: 1b82 e5bb 550d 9d3d 5b24 c0bc dc7f 613d
00000260: 9bbf 943d 5829 f6bd 852b c3bc c8a5 683d
00000270: 1a6b bdbd 64dd 943d b302 8b3d deee 86bb
00000280: a044 5ebc 669a 3b3d 0b97 863d d7d9 863c
00000290: 200c e13d fee6 753d ecc5 4d3d 0230 063e
000002a0: e688 1cbd 4896 fdb9 5161 a93d 6d32 a23c
000002b0: b73e 68bd 8539 0dbd 2e72 3fbc f2a3 7bbd
000002c0: 16e3 aa3c 6303 17bd 8b61 cdbc f570 5b3d
000002d0: b8c5 143c 4a64 573c f955 8d3c 2d81 01bd
000002e0: 1c44 b73b 49d2 bf3c 97bd 2f3d 4958 0dbd
000002f0: 29dc 90bb f9a1 173d b150 0fbd eb75 ec39
00000300: 52c2 363a 9047 c9bc b82d e73c 1c4f aa3a
00000310: 7860 98bd 18a8 b4bd 5f77 8f3b 5817 453d
00000320: a816 083e e6b8 a43c c3bd 473c 0921 bb3c
00000330: b9b5 643b eeec eabc 3e81 d03c ad27 32bd
00000340: f661 9ebd ca3d 553d 6fdc 82bc 3e58 a8bd
00000350: 5532 773d b6c4 36bd b05a 99bb d499 963c
00000360: ab77 80b8 813c 42bd 0e08 6b3a 8219 4f3b
00000370: aad7 9b3b 7b2a fabc c0ec ef3c 127e 21bd
00000380: 78a3 82bd 34f5 a4bb a867 083c c869 aa3d
00000390: 348d 7ebd 488b 86bd 0e5a 993d 5e41 8ebd
000003a0: 1708 933c be10 943a c336 33be 359d dd3d
000003b0: e9e1 8c3e 586a f3bd 8d1f 81bc 5d16 093e
000003c0: 5e5b c9bd f9e5 93bd e3bc 40bd 3d24 d13c
000003d0: b362 52bc b44c 4ebd e570 41bd 7a5a 90bd
000003e0: 0990 76bd dd4e d5ba e1fe 57bd e80d 263c
000003f0: 2361 0dbe 0684 1e3c b231 f83d fcb3 adbd

bias f4 [32]
-0.03151031 -0.0058337767 -0.07142193 0.007508531 -0.029866967 0.04277574 -0.04268328 0.02915355
0.008958202 -0.0064716768 0.0123676425 0.016399805 0.005353236 -0.035035685 -0.0035537744 0.0026005865
0.005266653 -0.01345096 -0.047361225 0.016001424 -2.5174775e-05 -0.016974004 -0.0056155506 0.0029815384
-0.009356764 -0.032750994 0.024170803 -0.0030982036 0.041760024 0.02273484 -0.016827775 -0.0073882514
00000000: f410 01bd 4429 bfbb a945 92bd 200a f63b
00000010: 92ab f4bc 9d35 2f3d aad4 2ebd 6dd3 ee3c
00000020: 6cc5 123c 5c10 d4bb a7a1 4a3c e258 863c
00000030: 336a af3b 9481 0fbd 71e6 68bb 9a6e 2a3b
00000040: e393 ac3b 6a61 5cbc d8fd 41bd 6b15 833c
00000050: 6b2e d3b7 110d 8bbc a702 b8bb ea65 433b
00000060: 1d4d 19bc e825 06bd d901 c63c 3b0b 4bbb
00000070: 8f0c 2b3d 6a3e ba3c 67da 89bc 2519 f2bb

weight f4 [64, 32, 3, 3]
0.0151677225 0.055961996 0.058439262 0.034998108 0.059858013 0.07901151 0.061839074 0.03915865
0.006397536 -0.036017425 -0.042703908 -0.033378173 -0.04747823 -0.036863007 0.06875362 -0.010953307
-0.026839077 0.028974477 0.008185107 -0.08044834 0.0017164646 -0.037360303 -0.046376236 -0.04341439
0.035633832 -0.018171877 -0.036442276 0.049313467 -0.05354415 0.01732549 -0.0062694047 -0.058824714
-0.053086173 -0.01668689 0.055450678 -0.031890847 -0.047669172 0.011509261 -0.0773715 0.032380622
0.029799473 0.0028321363 0.03563772 -0.039542656 0.02870409 -0.07554251 0.00045944218 -0.051716316
-0.02858843 -0.057670303 -0.047722194 0.0074848775 -0.029167147 -0.07104273 -0.0437721 -0.08166456
-0.010626253 -0.048884384 -0.063920744 -0.03848619 -0.07140234 -0.021152446 -0.07081779 -0.09914286
-0.008594633 -0.010012513 0.038025785 -0.06902378 -0.1042301 0.036868986 -0.027952416 -0.022890197
0.050750032 0.1079824 0.09729034 0.030940415 0.092750646 0.015170385 0.004635039 0.08736771
0.06373388 -0.027129393 0.048081715 -0.0016578063 -0.0021175432 0.07363767 -0.015026878 0.01016649
0.0807772 0.042930648 0.13118552 0.105084464 0.03435355 0.0019906983 0.08159314 0.020460868
0.00282728 0.03618551 0.09933588 0.049895525 -0.0046944316 -0.00865644 -0.013943889 0.040006075
0.012656797 -0.015078738 -0.027141936 0.078183286 0.001161872 0.037340436 0.05148858 0.072632685
0.030295426 0.022030292 0.06325768 0.045150157 0.0067725163 -0.017735265 -0.041993696 -0.02814007
-0.05971731 -0.019835692 -0.055072796 -0.014901984 -0.03148054 -0.032142244 -0.01197436 -0.026746524
0.053892475 0.032005895 -0.0018115263 -0.0076091075 0.069543436 0.02933856 0.04839951 0.05388504
0.035018478 -0.063533224 -0.037585728 0.018830203 0.0380741 0.015945083 -0.051312145 -0.01074762
-0.001886226 -0.031985976 -0.01490707 -0.0800934 -0.04770006 -0.015593702 -0.03914206 -0.072128676
-0.03656744 0.037392307 0.05410244 0.03715591 0.07266601 0.10973674 0.06053164 0.03773894
0.084309645 0.011041094 -0.06976079 -0.06003992 0.018576104 0.004175503 -0.020639015 0.016021045
0.028665576 0.00508158 -0.06626498 0.037162222 0.07519744 0.055660736 0.057891566 -0.014473635
0.06906745 0.05458753 -0.008027629 -0.0025848062 0.030701047 0.034490313 0.046459056 0.011486175
-0.0056960364 0.056259543 -0.0020614068 0.076767944 0.061199475 -0.015021822 0.0909897 -0.00076099456
0.027871037 0.11987986 0.06622759 0.05991145 0.0147416 0.09440754 -0.0447294 0.040574655
-0.050670072 -0.031643357 -0.0022889592 -0.05571119 0.021879714 0.0017579029 0.04174095 0.068187654
0.010730773 0.07024824 0.038135972 0.03277393 0.071166866 0.053855885 0.057500526 0.011151264
-0.0661488 -0.00036604478 0.019198932 0.033000685 0.037911277 0.0015576661 0.016780298 -0.012688955
0.005256271 -0.019049669 -0.07085289 -0.037605945 -0.0013851592 0.024258876 -0.07811565 -0.052670788
-0.027552824 -0.057421274 -0.016458973 0.034672398 -0.024082214 0.022847474 0.014199477 0.028909668
-0.035449304 -0.04133455 -0.057549242 -0.015517025 0.021116162 -0.08375345 -0.042720377 0.0020932632
-0.0011008827 -0.06631221 -0.01232068 -0.012538258 -0.00048361288 -0.022283353 -0.035284787 0.05397785
00000000: 0a82 783c 6838 653d 025e 6f3d 2d5a 0f3d
00000010: ad2d 753d c9d0 a13d f84a 7d3d d264 203d
00000020: 6ca2 d13b 0287 13bd 4bea 2ebd 8db7 08bd
00000030: 8878 42bd aafd 16bd b3ce 8c3d 8075 33bc
00000040: a0dd dbbc e25b ed3c d41a 063c 19c2 a4bd
00000050: fffa e03a 1e07 19bd 02f5 3dbd 4ad3 31bd
00000060: c8f4 113d 30dd 94bc 7f44 15bd ebfc 493d
00000070: 1c51 5bbd 30ee 8d3c 946f cdbb 2ff2 70bd
00000080: e370 59bd f2b2 88bc 4020 633d fa9f 02bd
00000090: c040 43bd 5791 3c3c f374 9ebd 8ba1 043d
000000a0: 061e f43c 5d9b 393b dcf8 113d 7bf7 21bd
000000b0: d724 eb3c 08b6 9abd 49e1 f039 7dd4 53bd
000000c0: 4832 eabc b237 6cbd 5978 43bd b443 f53b
000000d0: f1ef eebc da7e 91bd 604a 33bd c03f a7bd
000000e0: bc19 2ebc fe3a 48bd e1e8 82bd b2a3 1dbd
000000f0: 643b 92bd e547 adbc eb08 91bd 690b cbbd
00000100: 81d0 0cbc 860b 24bc edc0 1b3d 575c 8dbd
00000110: 9776 d5bd ef03 173d 77fc e4bc 3984 bbbc
00000120: 44df 4f3d e025 dd3d 2840 c73d c176 fd3c
00000130: 0df4 bd3d 358d 783c 86e1 973b d8ed b23d
00000140: e986 823d 763e debc 55f1 443d c04a d9ba
00000150: 7bc6 0abb 59cf 963d 4b33 76bc 5a91 263c
00000160: 846e a53d 0cd8 2f3d 7f55 063e 8636 d73d
00000170: 4fb6 0c3d 6076 023b 4e1a a73d 8d9d a73c
00000180: e349 393b 4237 143d 9c70 cb3d 405f 4c3d
00000190: bfd3 99bb bed3 0dbc e974 64bc 69dd 233d
000001a0: 745e 4f3c d00c 77bc c458 debc 8f1e a03d
000001b0: f449 983a 49f2 183d b0e5 523d 72c0 943d
000001c0: 1d2e f83c df78 b43c 3e8d 813d 5fef 383d
000001d0: fceb dd3b 8c49 91bc 9501 2cbd 0186 e6bc
000001e0: 239a 74bd 767e a2bc 0394 61bd 7327 74bc
000001f0: bdf1 00bd 96a7 03bd 1b30 44bc 871b dbbc
00000200: 5bbe 5c3d 9d18 033d bc70 edba d255 f9bb
00000210: ca6c 8e3d 6b57 f03c 913e 463d 8fb6 5c3d
00000220: 896f 0f3d b51d 82bd 7ef3 19bd cc41 9a3c
00000230: 96f3 1b3d 439f 823c af2c 52bd c916 30bc
00000240: 3e3b f7ba ba03 03bd c93c 74bc 0208 a4bd
00000250: 2361 43bd ba7c 7fbc 6d53 20bd 33b8 93bd
00000260: bdc7 15bd ad28 193d 859a 5d3d cc30 183d
00000270: ebd1 943d a8bd e03d 06f0 773d 2694 1a3d
00000280: 89aa ac3d b4e5 343c bfde 8ebd 6bec 75bd
00000290: ea2c 983c a8d2 883b 2713 a9bc 913e 833c
000002a0: 12d4 ea3c 6283 a63b efb5 87bd 6a37 183d
000002b0: 1e01 9a3d 83fc 633d b51f 6d3d d322 6dbc
000002c0: 3c73 8d3d 2d97 5f3d 5186 03bc da65 29bb
000002d0: c380 fb3c b745 0d3d da4b 3e3d 8230 3c3c
000002e0: d1a5 babb 6870 663d ab18 07bb 8338 9d3d
000002f0: 4dac 7a3d 171e 76bc cf58 ba3d 7b7d 47ba
00000300: cd51 e43c 9283 f53d 55a2 873d b565 753d
00000310: c086 713c be58 c13d 2d36 37bd 9c31 263d
00000320: 6c8b 4fbd 779c 01bd 5d02 16bb 6b31 64bd
00000330: 163d b33c 6f69 e63a 8ff8 2a3d f8a5 8b3d
00000340: 20d0 2f3c 4fde 8f3d 7734 1c3d f53d 063d
00000350: efbf 913d fd97 5c3d ac85 6b3d cbb3 363c
00000360: 0679 87bd b3e9 bfb9 1447 9d3c ba2b 073d
00000370: db48 1b3d 9a2a cc3a d676 893c 56e5 4fbc
00000380: cc3c ac3b 0d0e 9cbc 521b 91bd b108 1abd
00000390: 3b8e b5ba 8dba c63c 19fb 9fbd 53bd 57bd
000003a0: 76b6 e1bc 9232 6bbd f8d4 86bc a504 0e3d
000003b0: 1048 c5bc a02a bb3c eca4 683c f8d3 ec3c
000003c0: 4a33 11bd 6b4e 29bd c1b8 6bbd 1f3b 7ebc
000003d0: cdfb ac3c ee86 abbd 90fb 2ebd 212f 093b
000003e0: 7e4b 90ba b2ce 87bd addc 49bc 446d 4dbc
000003f0: 6c8d fdb9 948b b6bc c886 10bd e117 5d3d

bias f4 [64]
-0.09844262 0.019512737 -0.007489926 0.0044774697 0.013746281 0.058623664 0.029849514 -0.07656031
-0.007440532 0.03167164 -0.023382977 0.02508394 0.005913908 0.0071237865 -0.01179412 0.013757232
-0.059894353 -0.028222242 -0.083107494 0.03470571 0.04268857 -0.013764235 -0.027581146 -0.109541036
0.023834065 -0.09783292 -0.04151502 0.004214587 -0.08458693 -0.015715871 -0.15209776 0.027173653
-0.016217416 0.04595264 -0.027786486 0.06630297 -0.10489722 -0.04998139 -0.021330465 -0.046912704
0.034381334 -0.10534679 0.037246644 -0.05991919 0.0057203947 -0.13999762 -0.11174245 0.013729352
-0.118760385 -0.021428833 -0.06008971 -0.07855803 -0.011887282 0.0049978485 -0.03614291 -0.04684375
0.039225806 -0.02882637 0.016609106 -0.019832283 0.06767216 0.03478177 0.01722665 0.058677565
00000000: 499c c9bd 2dd9 9f3c 0e6e f5bb bdb7 923b
00000010: 1538 613c 5e1f 703d f886 f43c a7cb 9cbd
00000020: b5cf f3bb 1fba 013d a88d bfbc d67c cd3c
00000030: 75c9 c13b a76e e93b 203c 41bc 0366 613c
00000040: c853 75bd 5532 e7bc 4334 aabd 9327 0e3d
00000050: 36da 2e3d 6383 61bc dbf1 e1bc 0d57 e0bd
00000060: a83f c33c a05c c8bd a70b 2abd 851a 8a3b
00000070: ea3b adbd 92be 80bc 84bf 1bbe 489b de3c
00000080: 63da 84bc d638 3c3d 7ca0 e3bc dac9 873d
00000090: 5bd4 d6bd 49b9 4cbd 3abd aebc 8927 40bd
000000a0: 71d3 0c3d 0fc0 d7bd f08f 183d d36d 75bd
000000b0: 2672 bb3b 895b 0fbe 3ad9 e4bd 13f1 603c
000000c0: a538 f3bd 858b afbc a120 76bd 08e3 a0bd
000000d0: e0c2 42bc fec4 a33b 970a 14bd 3bdf 3fbd
000000e0: 3dab 203d 4825 ecbc d20f 883c 5077 a2bc
000000f0: b497 8a3d 5477 0e3d e71e 8d3c e357 703d

weight f4 [64, 64, 3, 3]
0.010238168 -0.012271008 -0.06359014 -0.042325675 -0.0008694498 -0.003924851 0.008907264 0.03310955
0.008523313 0.004228372 -0.016553791 0.024176197 -0.021418177 -0.011356559 0.041365523 -0.0236629
0.04044509 0.03413061 -0.0059758383 -0.041538775 0.014464904 -0.017556276 -0.028416738 0.010817236
0.063141 0.006781139 0.0424265 -0.047790367 -0.03968345 0.028890256 -0.08766664 -0.037570935
0.044596083 -0.04818518 -0.004184338 0.13743275 0.0027892808 -0.016827645 0.0011020715 -0.038459603
-0.035570912 0.017380668 0.005110152 -0.0018709357 -0.037870027 0.0052871113 -0.020794336 0.042372406
0.027439626 0.020381803 -0.009539641 0.023778766 0.03406595 0.032214914 -0.009763078 0.016589662
0.034694698 -0.002227532 0.010781127 0.032320455 0.01911483 0.026529064 0.042060718 0.05116044
0.04631837 0.026178565 0.05963181 0.00453212 -0.002869901 0.023615977 0.0076784804 0.0442936
0.0069136503 0.0479853 -0.034181274 0.059619006 0.04703941 0.02880351 0.008390494 0.03492662
0.07214655 -0.03463631 0.00745999 -0.014480245 0.007825425 -0.020674026 -0.05311243 0.06009802
-0.00012541648 0.0013631152 0.04431304 0.017250203 0.020372473 0.022307351 0.042630076 0.019517403
0.033600666 0.008858606 0.0068447185 -0.026689982 0.034913477 -0.006535741 0.03212024 -0.049211584
-0.03627314 0.018681267 -0.0021259275 0.03725686 0.040266693 0.033644855 0.04560163 0.01775662
-0.05575132 -0.04606726 -0.037143614 -0.0072275274 0.018153682 0.02143748 0.011228556 0.0042177998
-0.031563744 -0.029814078 0.025980985 -0.03515363 -0.022379788 0.030217607 0.026206678 -0.014425634
0.0017260916 0.0149589805 -0.046821143 0.01968403 0.06315087 -0.013126158 0.06398873 0.024836667
0.058530852 -0.007619819 0.0055252276 0.045291122 0.041093912 0.034886345 -0.012273632 0.010116346
0.038914908 -0.032056864 0.02473468 -0.0036493214 0.0028388302 0.013292982 0.026775979 -0.028486894
0.03642386 0.008019919 0.0015328553 0.010837944 -0.059396666 -0.046913132 0.028431103 -0.055977233
-0.03997946 0.031744428 0.0012700129 0.06320309 0.029365288 -0.0016782504 0.060831506 0.032953516
-0.047443584 0.029619478 -0.028841091 -0.07625514 -0.048882168 0.013323917 -0.05360048 -0.019248718
0.02440972 -0.03506667 0.033470348 0.03008064 0.11330589 0.067457974 0.07444553 0.040638596
0.032005675 0.06222617 0.056872085 0.07381471 0.026671592 0.041499652 -0.02857837 0.014803658
0.019072229 0.024542443 -0.014955114 -0.012942093 0.015798124 -0.007335305 0.027082851 -0.059204556
-0.037072875 0.047906283 0.010639394 -0.011571353 0.13296881 0.07722321 0.066824496 0.009746185
0.02442888 0.03588739 0.060280163 0.0038924173 0.019309623 -0.012564018 0.0083129695 0.074865304
0.013186748 0.050921995 0.05738812 -0.008731254 0.0029382184 0.030901158 0.007837559 0.05992242
0.07819059 0.04404089 -0.032154974 0.003874261 0.030697165 0.026767079 -0.026518045 0.023690863
0.016501816 -0.0060899034 0.009735582 0.005435947 -0.020028926 0.0061499793 -0.0133876335 -0.05284475
-0.03287727 -0.004531017 -0.06223378 -0.027036995 -0.0666066 -0.062373307 -0.035329845 -0.04834002
-0.040598813 0.009945128 -0.017979 0.088017926 -0.008464817 -0.061693136 -0.02172529 -0.05425156
00000000: fdbd 273c 570c 49bc 8c3b 82bd b05d 2dbd
00000010: caeb 63ba 099c 80bb c6ef 113c e19d 073d
00000020: 5ea5 0b3c 288e 8a3b d19b 87bc 290d c63c
00000030: 2c75 afbc dc10 3abc e56e 293d b3d8 c1bc
00000040: c0a9 253d 8acc 0b3d f7d0 c3bb 9024 2abd
00000050: 34fe 6c3c 2ed2 8fbc 38ca e8bc c73a 313c
00000060: 1250 813d 5134 de3b 69c7 2d3d d5bf 43bd
00000070: 1d8b 22bd 42ab ec3c 918a b3bd fbe3 19bd
00000080: 62aa 363d d35d 45bd c51c 89bb 2cbb 0c3e
00000090: 5ecc 363b 21da 89bc 6273 903a d187 1dbd
000000a0: ceb2 11bd e761 8e3c 1073 a73b 2f3a f5ba
000000b0: 9a1d 1bbd 813f ad3b e258 aabc b08e 2d3d
000000c0: 11c9 e03c bdf7 a63c 284c 1cbc b0cb c23c
000000d0: bd88 0b3d c9f3 033d 51f5 1fbc 0be7 873c
000000e0: 071c 0e3d c9fb 11bb 53a3 303c 7462 043d
000000f0: b496 9c3c 7b53 d93c dc47 2c3d 9c8d 513d
00000100: 55b8 3d3d 6e74 d63c 7c40 743d 2e82 943b
00000110: f314 3cbb 4b76 c13c c39b fb3b 356d 353d
00000120: e78b e23b 3c8c 443d aa01 0cbd 0f33 743d
00000130: 65ac 403d 57f5 eb3c 4878 093c 370f 0f3d
00000140: 92c1 933d cede 0dbd ef72 f43b 8d3e 6dbc
00000150: 3636 003c 935c a9bc 6b8c 59bd 5729 763d
00000160: 3b82 03b9 8eaa b23a 9781 353d 4c50 8d3c
00000170: 2ce4 a63c e8bd b63c e09c 2e3d f6e2 9f3c
00000180: daa0 093d b023 113c a949 e03b f3a4 dabc
00000190: 6f01 0f3d c529 d6bb 8390 033d 1692 49bd
000001a0: 2593 14bd 7509 993c 2553 0bbb a69a 183d
000001b0: b0ee 243d 30cf 093d c6c8 3a3d 5576 913c
000001c0: 7f5b 64bd 06b1 3cbd e723 18bd e5d4 ecbb
000001d0: 08b7 943c a79d af3c faf7 373c 7835 8a3b
000001e0: fc48 01bd a73c f4bc 13d6 d43c 41fd 0fbd
000001f0: d155 b7bc ea8a f73c 63af d63c 7f59 6cbc
00000200: 063e e23a 8316 753c 87c7 3fbd 6740 a13c
00000210: 3e55 813d 190f 57bc 860c 833d 4476 cb3c
00000220: 0cbe 6f3d adaf f9bb f80c b53b 2f83 393d
00000230: 1752 283d fce4 0e3d 5817 49bc 08bf 253c
00000240: 3d65 1f3d 0f4e 03bd 62a0 ca3c 7429 6fbb
00000250: ab0b 3a3b cfca 593c 4c59 db3c 595d e9bc
00000260: 2f31 153d fa65 033c 17ea c83a a291 313c
00000270: eb49 73bd fc27 40bd 58e8 e83c 6248 65bd
00000280: 81c1 23bd 7206 023d 9076 a63a 9f70 813d
00000290: 798f f03c bdf8 dbba 752a 793d 44fa 063d
000002a0: 3454 42bd 8ca4 f23c 2744 ecbc a82b 9cbd
000002b0: ab38 48bd 8f4c 5a3c 2d8c 5bbd 7daf 9dbc
000002c0: e5f6 c73c 12a2 0fbd 3418 093d ad6b f63c
000002d0: eb0c e83d 6827 8a3d e676 983d a874 263d
000002e0: 6218 033d dee0 7e3d b4f2 683d 2b2c 973d
000002f0: 627e da3c 8afb 293d 301d eabc 0b8b 723c
00000300: 5d3d 9c3c 3c0d c93c 4b06 75bc 130b 54bc
00000310: 116b 813c 005d f0bb dbdc dd3c 7a80 72bd
00000320: bad9 17bd 6139 443d da50 2e3c c695 3dbc
00000330: fa28 083e 3427 9e3d 48db 883d 76ae 1f3c
00000340: 131f c83c a8fe 123d 55e8 763d ed17 7f3b
00000350: 372f 9e3c 50d9 4dbc 1f33 083c fb52 993d
00000360: 3b0d 583c 9593 503d ce0f 6b3d 890d 0fbc
00000370: 208f 403b 6d24 fd3c 1b69 003c 3671 753d
00000380: 6322 a03d 3864 343d efb4 03bd 50e7 7d3b
00000390: 9f78 fb3c a246 db3c 5f3c d9bc 5713 c23c
000003a0: d12e 873c d08d c7bb fe81 1f3c 0720 b23b
000003b0: b413 a4bc c485 c93b ce57 5bbc bd73 58bd
000003c0: 51aa 06bd ed78 94bb d9e8 7ebd b07c ddbc
000003d0: 0b69 88bd 277b 7fbd 07b6 10bd 2f00 46bd
000003e0: f14a 26bd e4f0 223c b248 93bc be42 b43d
000003f0: 04b0 0abc f1b1 7cbd 3cf9 b1bc e236 5ebd

bias f4 [64]
0.012352813 -0.037284665 -0.056088414 0.013582354 0.0394405 0.017709693 0.023288427 0.0067456784
0.019842813 0.028255086 0.01516588 -0.017032668 -0.025460258 0.032840192 -0.013451845 -0.023625823
-0.03944783 -0.020394318 -0.007870544 -0.016419655 0.014629681 -0.005323718 -0.053631853 0.059865024
0.029895674 -0.022573497 -0.034852907 -0.0348226 -0.085571416 -0.039017353 0.00043556234 0.06013695
-0.005574595 0.035331476 -0.0135319345 0.0189425 -0.043080334 0.010769628 -0.05773267 0.0142221255
0.019895185 0.045995455 0.05422078 -0.024964638 -0.027047861 -0.02642539 -0.016306214 0.0073851855
-0.016119255 -0.012987476 0.017587908 0.011647305 0.03785531 0.0153947435 -0.049083892 -0.04123485
-0.042130817 -0.018355101 -0.0201626 0.011202562 0.045036875 0.04971329 -0.030403972 0.010828043
00000000: 7463 4a3c ceb7 18bd f7bc 65bd 8688 5e3c
00000010: 5d8c 213d eb13 913c 5fc7 be3c da0a dd3b
00000020: 658d a23c 3677 e73c 507a 783c 1888 8bbc
00000030: 0892 d0bc 7083 063d 2165 5cbc f18a c1bc
00000040: 0c94 21bd fc11 a7bc 74f3 00bc 8382 86bc
00000050: 54b1 6f3c 9572 aebb 13ad 5bbd 0735 753d
00000060: c6e7 f43c 0eec b8bc ecc1 0ebd 25a2 0ebd
00000070: 1140 afbd a9d0 1fbd 305c e439 2a52 763d
00000080: 18ab b6bb bdb7 103d 0cb5 5dbc 4d2d 9b3c
00000090: 0175 30bd 1873 303c 1879 6cbd eb03 693c
000000a0: 3afb a23c bb65 3c3d 9c16 5e3d a482 ccbc
000000b0: 7a93 ddbc 0f7a d8bc 9c94 85bc 6dff f13b
000000c0: 870c 84bc 6cc9 54bc 8414 903c 57d4 3e3c
000000d0: 2b0e 1b3d 3c3a 7c3c 310c 49bd e0e5 28bd
000000e0: 5d91 2cbd 705d 96bc 092c a5bc f38a 373c
000000f0: 9678 383d 2aa0 4b3d c011 f9bc 1b68 313c

weight f4 [64, 32, 2, 2]
0.07434616 -0.03765393 -0.014462096 -0.038237885 -0.004048371 -0.041120928 -0.07970367 -0.03675793
-0.042285345 -0.062324684 -0.08192207 -0.06764659 0.027535977 -0.005884883 -0.016108604 -0.017422277
0.057416398 -0.097174466 0.032705437 0.071185395 0.082541734 0.012734212 0.058154527 0.049064517
0.019305347 -0.036860384 -0.061155036 -0.09766557 0.060924403 0.06779344 -0.06155697 0.07518657
-0.079005145 -0.04378984 0.077808924 -0.019311177 -0.07306297 0.016993638 -0.06677204 -0.03750987
0.06813012 -0.06561981 0.036834124 0.029575756 -0.044782948 -0.08994181 -0.021911085 0.039975155
0.015534541 -0.028309394 0.071047895 0.028565625 0.033715203 -0.10010435 -0.04292362 -0.055787217
0.05004164 0.024148028 -0.06270649 -0.0051604128 -0.06409596 -0.055703107 0.0067091477 -0.054826252
0.08417721 0.035967756 0.0714663 -0.07274135 0.025374714 0.025388405 -0.03839486 -0.061140656
-0.008628871 0.040947367 -0.0005593148 0.080195144 0.011416748 -0.017789146 -0.050003763 0.01690095
0.008835206 0.012479824 -0.019859467 0.054558266 -0.022588138 0.065055154 0.008292432 0.06762373
0.05254039 -0.0028842306 -0.041055843 -0.029018598 -0.07720394 -0.020740509 0.00024235819 0.0029836246
-0.029657055 -0.09265012 0.05216537 -0.10620027 -0.057942357 0.04771356 0.050406042 -0.01636746
-0.013649449 0.025337655 0.064825565 -0.06372153 0.052078992 -0.030019494 -0.05567318 -0.20505606
-0.041785084 0.0151783675 -0.05514641 -0.07259205 -0.09482951 -0.031294927 0.006183196 -0.010972758
0.07105757 0.02546391 0.053292792 0.075548075 -0.07449516 -0.0058593894 0.03314847 -0.033090506
0.12782155 0.035233926 -0.012748456 0.009719926 -0.0026092548 -0.07993784 -0.0138894655 0.048705127
-0.093786545 0.1143362 -0.13613307 0.041874778 -0.012792872 0.055234667 -0.048506822 0.10729447
0.048994027 0.13720953 0.012519401 0.082461916 0.043665826 -0.019415803 0.12834805 -0.06593887
-0.041402407 -0.12224744 -0.027653486 -0.08477467 -0.029880317 0.029678877 -0.15155949 -0.0076768943
-0.14589895 0.015103342 -0.09486844 0.050659537 -0.0749345 -0.15127203 -0.031928837 -0.102756
-0.1110098 0.0832333 -0.006971895 0.075026564 -0.09436318 0.052185144 -0.124937795 0.128688
0.08668493 -0.17482592 0.006225791 -0.041785788 -0.007955517 0.023680884 -0.016069194 0.07038412
0.08490947 -0.12712985 0.08298191 -0.12503289 -0.017136458 0.12723152 0.04027314 0.001246429
0.019676613 0.036066204 -0.15679729 -0.010152647 0.041617095 -0.09595103 0.053767864 -0.047281116
-0.08335474 0.10824058 0.19150844 0.21787116 -0.016219374 -0.04502914 -0.10365298 -0.11288384
0.092270516 0.12958959 0.06305182 0.16102117 -0.07943596 0.14826147 0.0062128087 0.012963194
-0.07872211 0.032885764 -0.018122254 0.059374128 -0.009181063 -0.007569795 0.1717267 -0.018614618
-0.040274117 -0.0001938229 -0.04965468 0.11273332 -0.044451218 -0.13545713 0.0227624 -0.0124905035
-0.09298112 0.05490129 -0.13347062 0.029476712 0.14794958 0.20258534 0.13255244 0.14459251
0.0030875143 0.03391234 -0.037416026 0.0519325 -0.06738822 0.036712006 0.051893458 0.14145726
-0.07829708 0.08968173 -0.10292962 0.12463318 0.13585727 0.037039872 -0.016700076 -0.106739335
00000000: cd42 983d 023b 1abd 6df2 6cbc 549f 1cbd
00000010: 33a8 84bb 6b6e 28bd ae3b a3bd 7c8f 16bd
00000020: 6633 2dbd 2b48 7fbd c2c6 a7bd 4c8a 8abd
00000030: 2193 e13c fad5 c0bb 31f6 83bc 2ab9 8ebc
00000040: 752d 6b3d 6803 c7bd 23f6 053d a6c9 913d
00000050: a40b a93d 28a3 503c 7133 6e3d e0f7 483d
00000060: 3f26 9e3c eafa 16bd b47d 7abd e304 c8bd
00000070: de8b 793d 49d7 8a3d 2923 7cbd 6bfb 993d
00000080: 73cd a1bd fa5c 33bd 495a 9f3d 7932 9ebc
00000090: 0aa2 95bd 3e36 8b3c c8bf 88bd f3a3 19bd
000000a0: ce87 8b3d ae63 86bd 61df 163d db48 f23c
000000b0: 536e 37bd 6933 b8bd e07e b3bc fdbc 233d
000000c0: 9684 7e3c 1ae9 e7bc 8f81 913d 7502 ea3c
000000d0: f418 0a3d 8203 cdbd aed0 2fbd 2381 64bd
000000e0: 76f8 4c3d 16d2 c53c 436c 80bd ae18 a9bb
000000f0: be44 83bd f128 64bd 69d8 db3b 7e91 60bd
00000100: 1a65 ac3d ed52 133d ec5c 923d 6bf9 94bd
00000110: a2de cf3c 58fb cf3c ee43 1dbd a06e 7abd
00000120: 1c60 0dbc 6db8 273d fb9e 12ba 5a3d a43d
00000130: 500d 3b3c 8bba 91bc bfd0 4cbd dc73 8a3c
00000140: 8ac1 103c 2d78 4c3c 52b0 a2bc 7d78 5f3d
00000150: c20a b9bc a33b 853d fbdc 073c 4f7e 8a3d
00000160: 9834 573d 5c05 3dbb 2c2a 28bd 69b8 edbc
00000170: 191d 9ebd 00e8 a9bc 8821 7e39 ea88 433b
00000180: 5af3 f2bc 59bf bdbd 5bab 553d 877f d9bd
00000190: f754 6dbd 4b6f 433d 9176 4e3d 0d15 86bc
000001a0: f0a1 5fbc ea90 cf3c 44c3 843d 6f80 82bd
000001b0: c850 553d 71eb f5bc 8f09 64bd 37fa 51be
000001c0: d626 2bbd b0ae 783c 34e1 61bd 24ab 94bd
000001d0: f935 c2bd 1c2f 00bd 689c ca3b 15c7 33bc
000001e0: a286 913d b199 d03c 8b49 5a3d f3b8 9a3d
000001f0: eb90 98bd 1f00 c0bb b1c6 073d e989 07bd
00000200: a7e3 023e 7351 103d e6de 50bc 5340 1f3c
00000210: 0800 2bbb 73b6 a3bd a490 63bc 077f 473d
00000220: 2913 c0bd 1929 ea3d 7866 0bbe e384 2b3d
00000230: 3299 51bc bf3d 623d 17af 46bd 34bd db3d
00000240: f6ad 483d a880 0c3e 2c1e 4d3c cbe1 a83d
00000250: f0da 323d e40d 9fbc ac6d 033e f50a 87bd
00000260: 9295 29bd de5c fabd 9089 e2bc 589e adbd
00000270: 91c7 f4bc 1e21 f33c 6932 1bbe 758e fbbb
00000280: 8966 15be 0274 773c 624a c2bd 6080 4f3d
00000290: 4277 99bd 0ee7 1abe d0c7 02bd bd71 d2bd
000002a0: 1b59 e3bd 3876 aa3d 7f74 e4bb 87a7 993d
000002b0: 7c41 c1bd 17c0 553d 63df ffbd c9c6 033e
000002c0: de87 b13d 9105 33be b801 cc3b 9327 2bbd
000002d0: db57 02bc 6afe c13c 8ba3 83bc 8d25 903d
000002e0: 04e5 ad3d 542e 02be 6bf2 a93d 9f08 00be
000002f0: c261 8cbc fb48 023e 73f5 243d 385f a33a
00000300: d930 a13c 28ba 133d 788f 20be 4a57 26bc
00000310: b076 2a3d f981 c4bd b13b 5c3d d8a9 41bd
00000320: e4b5 aabd 3dad dd3d ca1a 443e 9e19 5f3e
00000330: 7ede 84bc 7a70 38bd 0348 d4bd a52f e7bd
00000340: 53f8 bc3d 22b3 043e 5021 813d bce2 243e
00000350: 52af a2bd dbd1 173e d194 cb3b 9463 543c
00000360: 0f39 a1bd 39b3 063d 1f75 94bc 4932 733d
00000370: 2b6c 16bc 0b0c f8bb 20d9 2f3e af7d 98bc
00000380: 79f6 24bd f03c 4bb9 b562 4bbd bae0 e63d
00000390: 7b12 36bd 46b5 0abe 3678 ba3c f8a4 4cbc
000003a0: e36c bebd 2de0 603d 86ac 08be 2579 f13c
000003b0: 1880 173e 8872 4f3e d4bb 073e 0f10 143e
000003c0: e557 4a3b aae7 0a3d 8c41 19bd 2cb7 543d
000003d0: d602 8abd 545f 163d 3c8e 543d 2cda 103e
000003e0: 385a a0bd 0eab b73d c4cc d2bd ae3f ff3d
000003f0: 2b1e 0b3e 1fb7 173d 99ce 88bc 279a dabd
